=======================================================================================================================================
Layer (type:depth-idx)                                       Output Shape              Param #                   Mult-Adds
=======================================================================================================================================
Model                                                        [4, 50, 13]               --                        --
├─Impl: 1-1                                                  [4, 50, 13]               --                        --
│    └─TPN_R50: 2-1                                          [4, 50, 126]              --                        --
│    │    └─FeatureListNet: 3-1                              [200, 320, 14, 25]        (5,494,168)               285,804,516,800
│    │    └─SimpleTPN: 3-2                                   [4, 126, 14, 25]          423,234                   492,145,416
│    │    └─SimpleTPN: 3-3                                   [4, 126, 14, 25]          (recursive)               492,145,416
│    │    └─SimpleTPN: 3-4                                   [4, 126, 14, 25]          (recursive)               492,145,416
│    │    └─SimpleTPN: 3-5                                   [4, 126, 14, 25]          (recursive)               492,145,416
…
│    │    └─SimpleTPN: 3-47                                  [4, 126, 14, 25]          (recursive)               492,145,416
│    │    └─SimpleTPN: 3-48                                  [4, 126, 14, 25]          (recursive)               492,145,416
│    │    └─SimpleTPN: 3-49                                  [4, 126, 14, 25]          (recursive)               492,145,416
│    │    └─SimpleTPN: 3-50                                  [4, 126, 14, 25]          (recursive)               492,145,416
│    │    └─SimpleTPN: 3-51                                  [4, 126, 14, 25]          (recursive)               492,145,416
│    └─TCNAggregator: 2-2                                    [4, 50, 126]              --                        --
│    │    └─AvgPool1d: 3-52                                  [4, 126, 22]              --                        --
│    │    └─Sequential: 3-53                                 [4, 126, 22]              143,262                   12,607,056
│    └─FCLayers: 2-3                                         [4, 50, 13]               --                        --
│    │    └─Dropout: 3-54                                    [200, 126]                --                        --
│    │    └─Linear: 3-55                                     [200, 13]                 1,651                     330,200
=======================================================================================================================================
Total params: 6,062,315
Trainable params: 568,147
Non-trainable params: 5,494,168
Total mult-adds (G): 310.42
=======================================================================================================================================
…
