…
|      |   Average Precision |
+======+=====================+
| Mean |                  20 |
+------+---------------------+
CORRECTLY FINISHED TRAINING AND INFERENCE
==================================================================================================================================
Layer (type:depth-idx)                                  Output Shape              Param #                   Mult-Adds
==================================================================================================================================
Model                                                   [4, 50, 13]               --                        --
├─Impl: 1-1                                             [4, 50, 13]               --                        --
│    └─RegNet: 2-1                                      [200, 768]                --                        --
│    │    └─ConvNormAct: 3-1                            [200, 32, 112, 199]       928                       3,851,366,400
│    │    └─RegStage: 3-2                               [200, 64, 56, 100]        19,016                    26,332,584,000
│    │    └─RegStage: 3-3                               [200, 128, 28, 50]        177,104                   49,893,468,800
│    │    └─RegStage: 3-4                               [200, 320, 14, 25]        2,384,592                 147,737,206,400
│    │    └─RegStage: 3-5                               [200, 768, 7, 13]         2,912,528                 57,989,891,200
│    │    └─Identity: 3-6                               [200, 768, 7, 13]         --                        --
│    │    └─ClassifierHead: 3-7                         [200, 768]                --                        --
│    └─TCNAggregator: 2-2                               [4, 50, 768]              --                        --
│    │    └─AvgPool1d: 3-8                              [4, 768, 24]              --                        --
│    │    └─Sequential: 3-9                             [4, 768, 24]              5,310,720                 509,829,120
│    └─FCLayers: 2-3                                    [4, 50, 13]               --                        --
│    │    └─Dropout: 3-10                               [200, 768]                --                        --
│    │    └─Linear: 3-11                                [200, 13]                 9,997                     1,999,400
==================================================================================================================================
Total params: 10,814,885
Trainable params: 10,814,885
Non-trainable params: 0
Total mult-adds (G): 286.32
==================================================================================================================================
Input size (MB): 213.96
…
|      |   Average Precision |
+======+=====================+
| Mean |                1.97 |
+------+---------------------+
CORRECTLY FINISHED TRAINING AND INFERENCE
==================================================================================================================================
Layer (type:depth-idx)                                  Output Shape              Param #                   Mult-Adds
==================================================================================================================================
Model                                                   [6, 50, 13]               --                        --
├─Impl: 1-1                                             [6, 50, 13]               --                        --
│    └─RegNet: 2-1                                      [300, 768]                --                        --
│    │    └─ConvNormAct: 3-1                            [300, 32, 112, 199]       928                       5,777,049,600
│    │    └─RegStage: 3-2                               [300, 64, 56, 100]        19,016                    39,498,876,000
│    │    └─RegStage: 3-3                               [300, 128, 28, 50]        177,104                   74,840,203,200
│    │    └─RegStage: 3-4                               [300, 320, 14, 25]        2,384,592                 221,605,809,600
│    │    └─RegStage: 3-5                               [300, 768, 7, 13]         2,912,528                 86,984,836,800
│    │    └─Identity: 3-6                               [300, 768, 7, 13]         --                        --
│    │    └─ClassifierHead: 3-7                         [300, 768]                --                        --
│    └─TCNAggregator: 2-2                               [6, 50, 768]              --                        --
│    │    └─AvgPool1d: 3-8                              [6, 768, 10]              --                        --
│    │    └─Sequential: 3-9                             [6, 768, 10]              5,310,720                 318,643,200
│    └─FCLayers: 2-3                                    [6, 50, 13]               --                        --
│    │    └─Dropout: 3-10                               [300, 768]                --                        --
│    │    └─Linear: 3-11                                [300, 13]                 9,997                     2,999,100
==================================================================================================================================
Total params: 10,814,885
Trainable params: 10,814,885
Non-trainable params: 0
Total mult-adds (G): 429.03
==================================================================================================================================
Input size (MB): 320.95
…
|      |   Average Precision |
+======+=====================+
| Mean |                4.06 |
+------+---------------------+
CORRECTLY FINISHED TRAINING AND INFERENCE
==================================================================================================================================
Layer (type:depth-idx)                                  Output Shape              Param #                   Mult-Adds
==================================================================================================================================
Model                                                   [4, 50, 13]               --                        --
├─Impl: 1-1                                             [4, 50, 13]               --                        --
│    └─RegNet: 2-1                                      [200, 768]                --                        --
│    │    └─ConvNormAct: 3-1                            [200, 32, 112, 199]       928                       3,851,366,400
│    │    └─RegStage: 3-2                               [200, 64, 56, 100]        19,016                    26,332,584,000
│    │    └─RegStage: 3-3                               [200, 128, 28, 50]        177,104                   49,893,468,800
│    │    └─RegStage: 3-4                               [200, 320, 14, 25]        2,384,592                 147,737,206,400
│    │    └─RegStage: 3-5                               [200, 768, 7, 13]         2,912,528                 57,989,891,200
│    │    └─Identity: 3-6                               [200, 768, 7, 13]         --                        --
│    │    └─ClassifierHead: 3-7                         [200, 768]                --                        --
│    └─TCNAggregator: 2-2                               [4, 50, 768]              --                        --
│    │    └─AvgPool1d: 3-8                              [4, 768, 10]              --                        --
│    │    └─Sequential: 3-9                             [4, 768, 10]              5,310,720                 212,428,800
│    └─FCLayers: 2-3                                    [4, 50, 13]               --                        --
│    │    └─Dropout: 3-10                               [200, 768]                --                        --
│    │    └─Linear: 3-11                                [200, 13]                 9,997                     1,999,400
==================================================================================================================================
Total params: 10,814,885
Trainable params: 10,814,885
Non-trainable params: 0
Total mult-adds (G): 286.02
==================================================================================================================================
Input size (MB): 213.96
…
|      |   Average Precision |
+======+=====================+
| Mean |               26.26 |
+------+---------------------+
CORRECTLY FINISHED TRAINING AND INFERENCE
==================================================================================================================================
Layer (type:depth-idx)                                  Output Shape              Param #                   Mult-Adds
==================================================================================================================================
Model                                                   [6, 50, 13]               --                        --
├─Impl: 1-1                                             [6, 50, 13]               --                        --
│    └─RegNet: 2-1                                      [300, 768]                --                        --
│    │    └─ConvNormAct: 3-1                            [300, 32, 112, 199]       928                       5,777,049,600
│    │    └─RegStage: 3-2                               [300, 64, 56, 100]        19,016                    39,498,876,000
│    │    └─RegStage: 3-3                               [300, 128, 28, 50]        177,104                   74,840,203,200
│    │    └─RegStage: 3-4                               [300, 320, 14, 25]        2,384,592                 221,605,809,600
│    │    └─RegStage: 3-5                               [300, 768, 7, 13]         2,912,528                 86,984,836,800
│    │    └─Identity: 3-6                               [300, 768, 7, 13]         --                        --
│    │    └─ClassifierHead: 3-7                         [300, 768]                --                        --
│    └─TCNAggregator: 2-2                               [6, 50, 768]              --                        --
│    │    └─AvgPool1d: 3-8                              [6, 768, 24]              --                        --
│    │    └─Sequential: 3-9                             [6, 768, 24]              5,310,720                 764,743,680
│    └─FCLayers: 2-3                                    [6, 50, 13]               --                        --
│    │    └─Dropout: 3-10                               [300, 768]                --                        --
│    │    └─Linear: 3-11                                [300, 13]                 9,997                     2,999,100
==================================================================================================================================
Total params: 10,814,885
Trainable params: 10,814,885
Non-trainable params: 0
Total mult-adds (G): 429.47
==================================================================================================================================
Input size (MB): 320.95
…
|      |   Average Precision |
+======+=====================+
| Mean |                17.3 |
+------+---------------------+
CORRECTLY FINISHED TRAINING AND INFERENCE
==================================================================================================================================
Layer (type:depth-idx)                                  Output Shape              Param #                   Mult-Adds
==================================================================================================================================
Model                                                   [4, 50, 13]               --                        --
├─Impl: 1-1                                             [4, 50, 13]               --                        --
│    └─RegNet: 2-1                                      [200, 768]                --                        --
│    │    └─ConvNormAct: 3-1                            [200, 32, 112, 199]       928                       3,851,366,400
│    │    └─RegStage: 3-2                               [200, 64, 56, 100]        19,016                    26,332,584,000
│    │    └─RegStage: 3-3                               [200, 128, 28, 50]        177,104                   49,893,468,800
│    │    └─RegStage: 3-4                               [200, 320, 14, 25]        2,384,592                 147,737,206,400
│    │    └─RegStage: 3-5                               [200, 768, 7, 13]         2,912,528                 57,989,891,200
│    │    └─Identity: 3-6                               [200, 768, 7, 13]         --                        --
│    │    └─ClassifierHead: 3-7                         [200, 768]                --                        --
│    └─TCNAggregator: 2-2                               [4, 50, 768]              --                        --
│    │    └─AvgPool1d: 3-8                              [4, 768, 22]              --                        --
│    │    └─Sequential: 3-9                             [4, 768, 22]              5,310,720                 467,343,360
│    └─FCLayers: 2-3                                    [4, 50, 13]               --                        --
│    │    └─Dropout: 3-10                               [200, 768]                --                        --
│    │    └─Linear: 3-11                                [200, 13]                 9,997                     1,999,400
==================================================================================================================================
Total params: 10,814,885
Trainable params: 10,814,885
Non-trainable params: 0
Total mult-adds (G): 286.27
==================================================================================================================================
Input size (MB): 213.96
…
|      |   Average Precision |
+======+=====================+
| Mean |                14.4 |
+------+---------------------+
CORRECTLY FINISHED TRAINING AND INFERENCE
==================================================================================================================================
Layer (type:depth-idx)                                  Output Shape              Param #                   Mult-Adds
==================================================================================================================================
Model                                                   [6, 50, 13]               --                        --
├─Impl: 1-1                                             [6, 50, 13]               --                        --
│    └─RegNet: 2-1                                      [300, 768]                --                        --
│    │    └─ConvNormAct: 3-1                            [300, 32, 112, 199]       928                       5,777,049,600
│    │    └─RegStage: 3-2                               [300, 64, 56, 100]        19,016                    39,498,876,000
│    │    └─RegStage: 3-3                               [300, 128, 28, 50]        177,104                   74,840,203,200
│    │    └─RegStage: 3-4                               [300, 320, 14, 25]        2,384,592                 221,605,809,600
│    │    └─RegStage: 3-5                               [300, 768, 7, 13]         2,912,528                 86,984,836,800
│    │    └─Identity: 3-6                               [300, 768, 7, 13]         --                        --
│    │    └─ClassifierHead: 3-7                         [300, 768]                --                        --
│    └─TCNAggregator: 2-2                               [6, 50, 768]              --                        --
│    │    └─AvgPool1d: 3-8                              [6, 768, 18]              --                        --
│    │    └─Sequential: 3-9                             [6, 768, 18]              5,310,720                 573,557,760
│    └─FCLayers: 2-3                                    [6, 50, 13]               --                        --
│    │    └─Dropout: 3-10                               [300, 768]                --                        --
│    │    └─Linear: 3-11                                [300, 13]                 9,997                     2,999,100
==================================================================================================================================
Total params: 10,814,885
Trainable params: 10,814,885
Non-trainable params: 0
Total mult-adds (G): 429.28
==================================================================================================================================
Input size (MB): 320.95
…
